…
Skipping registering GPU devices...
2022-03-24 00:11:10.914994: I tensorflow/core/platform/cpu_feature_guard.cc:151] This TensorFlow binary is optimized with oneAPI Deep Neural Network Library (oneDNN) to use the following CPU instructions in performance-critical operations:  AVX AVX2
To enable them in other operations, rebuild TensorFlow with the appropriate compiler flags.
Model: "sequential"
_________________________________________________________________
 Layer (type)                Output Shape              Param #
=================================================================
 vgg16 (Functional)          (None, 1, 1, 512)         14714688

 dropout (Dropout)           (None, 1, 1, 512)         0

 flatten (Flatten)           (None, 512)               0

 batch_normalization (BatchN  (None, 512)              2048
 ormalization)

 dense (Dense)               (None, 32)                16416

 batch_normalization_1 (Batc  (None, 32)               128
 hNormalization)

 activation (Activation)     (None, 32)                0

 dropout_1 (Dropout)         (None, 32)                0

 dense_1 (Dense)             (None, 32)                1056

 batch_normalization_2 (Batc  (None, 32)               128
 hNormalization)

 activation_1 (Activation)   (None, 32)                0

 dropout_2 (Dropout)         (None, 32)                0

 dense_2 (Dense)             (None, 32)                1056

 batch_normalization_3 (Batc  (None, 32)               128
 hNormalization)

 activation_2 (Activation)   (None, 32)                0

 dense_3 (Dense)             (None, 7)                 231

=================================================================
Total params: 14,735,879
Trainable params: 7,099,399
Non-trainable params: 7,636,480
_________________________________________________________________
Epoch 1/5
359/359 [==============================] - 208s 574ms/step - loss: 1.9294 - accuracy: 0.8543 - precision: 0.2180 - recall: 0.0078 - val_loss: 1.8256 - val_accuracy: 0.8571 - val_precision: 0.0000e+00 - val_recall: 0.0000e+00
…
