…
Skipping registering GPU devices...
2022-03-23 23:50:48.617351: I tensorflow/core/platform/cpu_feature_guard.cc:151] This TensorFlow binary is optimized with oneAPI Deep Neural Network Library (oneDNN) to use the following CPU instructions in performance-critical operations:  AVX AVX2
To enable them in other operations, rebuild TensorFlow with the appropriate compiler flags.
Model: "sequential"
_________________________________________________________________
 Layer (type)                Output Shape              Param #   
=================================================================
 vgg16 (Functional)          (None, 1, 1, 512)         14714688  

 dropout (Dropout)           (None, 1, 1, 512)         0

 flatten (Flatten)           (None, 512)               0

 dense (Dense)               (None, 32)                16416     

 activation (Activation)     (None, 32)                0

 dropout_1 (Dropout)         (None, 32)                0

 dense_1 (Dense)             (None, 32)                1056

 activation_1 (Activation)   (None, 32)                0

 dropout_2 (Dropout)         (None, 32)                0

 dense_2 (Dense)             (None, 32)                1056

 activation_2 (Activation)   (None, 32)                0

 dense_3 (Dense)             (None, 7)                 231

=================================================================
Total params: 14,733,447
Trainable params: 7,098,183
Non-trainable params: 7,635,264
_________________________________________________________________
Epoch 1/5
359/359 [==============================] - 186s 515ms/step - loss: 1.8568 - accuracy: 0.8567 - precision: 0.1892 - recall: 9.1432e-04 - val_loss: 1.8107 - val_accuracy: 0.8571 - val_precision: 0.0000e+00 - val_recall: 0.0000e+00
…
