…
Skipping registering GPU devices...
2022-03-24 00:31:30.887450: I tensorflow/core/platform/cpu_feature_guard.cc:151] This TensorFlow binary is optimized with oneAPI Deep Neural Network Library (oneDNN) to use the following CPU instructions in performance-critical operations:  AVX AVX2
To enable them in other operations, rebuild TensorFlow with the appropriate compiler flags.
Model: "sequential"
_________________________________________________________________
 Layer (type)                Output Shape              Param #   
=================================================================
 vgg16 (Functional)          (None, 1, 1, 512)         14714688  

 flatten (Flatten)           (None, 512)               0

 dense (Dense)               (None, 32)                16416

 activation (Activation)     (None, 32)                0

 dense_1 (Dense)             (None, 32)                1056

 activation_1 (Activation)   (None, 32)                0

 dense_2 (Dense)             (None, 32)                1056

 activation_2 (Activation)   (None, 32)                0

 dense_3 (Dense)             (None, 7)                 231

=================================================================
Total params: 14,733,447
Trainable params: 7,098,183
Non-trainable params: 7,635,264
_________________________________________________________________
Epoch 1/5
359/359 [==============================] - 201s 558ms/step - loss: 1.7587 - accuracy: 0.8584 - precision: 0.5960 - recall: 0.0284 - val_loss: 1.6476 - val_accuracy: 0.8635 - val_precision: 0.6526 - val_recall: 0.0946
…
