…
Skipping registering GPU devices...
2022-03-16 16:49:53.448191: I tensorflow/core/platform/cpu_feature_guard.cc:151] This TensorFlow binary is optimized with oneAPI Deep Neural Network Library (oneDNN) to use the following CPU instructions in performance-critical operations:  AVX AVX2
To enable them in other operations, rebuild TensorFlow with the appropriate compiler flags.
Model: "sequential"
_________________________________________________________________
 Layer (type)                Output Shape              Param #   
=================================================================
 vgg16 (Functional)          (None, 1, 1, 512)         14714688  

 dropout (Dropout)           (None, 1, 1, 512)         0

 flatten (Flatten)           (None, 512)               0

 batch_normalization (BatchN  (None, 512)              2048
 ormalization)

 dense (Dense)               (None, 32)                16416

 batch_normalization_1 (Batc  (None, 32)               128
 hNormalization)

 activation (Activation)     (None, 32)                0

 dropout_1 (Dropout)         (None, 32)                0

 dense_1 (Dense)             (None, 32)                1056

 batch_normalization_2 (Batc  (None, 32)               128
 hNormalization)

 activation_1 (Activation)   (None, 32)                0

 dropout_2 (Dropout)         (None, 32)                0

 dense_2 (Dense)             (None, 32)                1056

 batch_normalization_3 (Batc  (None, 32)               128
 hNormalization)

 activation_2 (Activation)   (None, 32)                0

 dense_3 (Dense)             (None, 7)                 231

=================================================================
Total params: 14,735,879
Trainable params: 7,099,399
Non-trainable params: 7,636,480
_________________________________________________________________
Epoch 1/5
359/359 [==============================] - 200s 553ms/step - loss: 1.9130 - accuracy: 0.8552 - precision: 0.2675 - recall: 0.0080 - val_loss: 1.8591 - val_accuracy: 0.8571 - val_precision: 0.0000e+00 - val_recall: 0.0000e+00
…
Skipping registering GPU devices...
2022-03-20 02:23:56.858477: I tensorflow/core/platform/cpu_feature_guard.cc:151] This TensorFlow binary is optimized with oneAPI Deep Neural Network Library (oneDNN) to use the following CPU instructions in performance-critical operations:  AVX AVX2
To enable them in other operations, rebuild TensorFlow with the appropriate compiler flags.
Model: "sequential"
_________________________________________________________________
 Layer (type)                Output Shape              Param #
=================================================================
 vgg16 (Functional)          (None, 1, 1, 512)         14714688

 flatten (Flatten)           (None, 512)               0

 batch_normalization (BatchN  (None, 512)              2048
 ormalization)

 dense (Dense)               (None, 32)                16416

 batch_normalization_1 (Batc  (None, 32)               128
 hNormalization)

 activation (Activation)     (None, 32)                0

 dense_1 (Dense)             (None, 32)                1056

 batch_normalization_2 (Batc  (None, 32)               128
 hNormalization)

 activation_1 (Activation)   (None, 32)                0

 dense_2 (Dense)             (None, 32)                1056

 batch_normalization_3 (Batc  (None, 32)               128
 hNormalization)

 activation_2 (Activation)   (None, 32)                0

 dense_3 (Dense)             (None, 7)                 231

=================================================================
Total params: 14,735,879
Trainable params: 7,099,399
Non-trainable params: 7,636,480
_________________________________________________________________
Epoch 1/5
359/359 [==============================] - 181s 503ms/step - loss: 1.5525 - accuracy: 0.8700 - precision: 0.7051 - recall: 0.1549 - val_loss: 1.7021 - val_accuracy: 0.8569 - val_precision: 0.4987 - val_recall: 0.2916
…
Skipping registering GPU devices...
2022-03-18 23:54:35.516648: I tensorflow/core/platform/cpu_feature_guard.cc:151] This TensorFlow binary is optimized with oneAPI Deep Neural Network Library (oneDNN) to use the following CPU instructions in performance-critical operations:  AVX AVX2
To enable them in other operations, rebuild TensorFlow with the appropriate compiler flags.
Model: "sequential"
_________________________________________________________________
 Layer (type)                Output Shape              Param #
=================================================================
 vgg16 (Functional)          (None, 1, 1, 512)         14714688

 flatten (Flatten)           (None, 512)               0

 dense (Dense)               (None, 32)                16416

 activation (Activation)     (None, 32)                0

 dense_1 (Dense)             (None, 32)                1056

 activation_1 (Activation)   (None, 32)                0

 dense_2 (Dense)             (None, 32)                1056

 activation_2 (Activation)   (None, 32)                0

 dense_3 (Dense)             (None, 7)                 231

=================================================================
Total params: 14,733,447
Trainable params: 7,098,183
Non-trainable params: 7,635,264
_________________________________________________________________
Epoch 1/5
359/359 [==============================] - 248s 688ms/step - loss: 3.1068 - accuracy: 0.8512 - precision: 0.1717 - recall: 0.0108 - val_loss: 1.8369 - val_accuracy: 0.8571 - val_precision: 0.0000e+00 - val_recall: 0.0000e+00
…
Skipping registering GPU devices...
2022-03-19 00:52:39.290177: I tensorflow/core/platform/cpu_feature_guard.cc:151] This TensorFlow binary is optimized with oneAPI Deep Neural Network Library (oneDNN) to use the following CPU instructions in performance-critical operations:  AVX AVX2
To enable them in other operations, rebuild TensorFlow with the appropriate compiler flags.
Model: "sequential"
_________________________________________________________________
 Layer (type)                Output Shape              Param #
=================================================================
 vgg16 (Functional)          (None, 1, 1, 512)         14714688

 dropout (Dropout)           (None, 1, 1, 512)         0

 flatten (Flatten)           (None, 512)               0

 dense (Dense)               (None, 32)                16416

 activation (Activation)     (None, 32)                0

 dropout_1 (Dropout)         (None, 32)                0

 dense_1 (Dense)             (None, 32)                1056

 activation_1 (Activation)   (None, 32)                0

 dropout_2 (Dropout)         (None, 32)                0

 dense_2 (Dense)             (None, 32)                1056

 activation_2 (Activation)   (None, 32)                0

 dense_3 (Dense)             (None, 7)                 231

=================================================================
Total params: 14,733,447
Trainable params: 7,098,183
Non-trainable params: 7,635,264
_________________________________________________________________
Epoch 1/5
359/359 [==============================] - 185s 513ms/step - loss: 1.8748 - accuracy: 0.8567 - precision: 0.2516 - recall: 0.0017 - val_loss: 1.8112 - val_accuracy: 0.8571 - val_precision: 0.0000e+00 - val_recall: 0.0000e+00
…
