…
Skipping registering GPU devices...
2022-03-24 01:56:00.233411: I tensorflow/core/platform/cpu_feature_guard.cc:151] This TensorFlow binary is optimized with oneAPI Deep Neural Network Library (oneDNN) to use the following CPU instructions in performance-critical operations:  AVX AVX2
To enable them in other operations, rebuild TensorFlow with the appropriate compiler flags.
Model: "sequential"
_________________________________________________________________
 Layer (type)                Output Shape              Param #   
=================================================================
 vgg16 (Functional)          (None, 1, 1, 512)         14714688  

 flatten (Flatten)           (None, 512)               0

 batch_normalization (BatchN  (None, 512)              2048      
 ormalization)

 dense (Dense)               (None, 32)                16416

 batch_normalization_1 (Batc  (None, 32)               128
 hNormalization)

 activation (Activation)     (None, 32)                0

 dense_1 (Dense)             (None, 32)                1056

 batch_normalization_2 (Batc  (None, 32)               128
 hNormalization)

 activation_1 (Activation)   (None, 32)                0

 dense_2 (Dense)             (None, 32)                1056

 batch_normalization_3 (Batc  (None, 32)               128
 hNormalization)

 activation_2 (Activation)   (None, 32)                0

 dense_3 (Dense)             (None, 7)                 231

=================================================================
Total params: 14,735,879
Trainable params: 7,099,399
Non-trainable params: 7,636,480
_________________________________________________________________
Epoch 1/5
359/359 [==============================] - 178s 493ms/step - loss: 1.6040 - accuracy: 0.8681 - precision: 0.6974 - recall: 0.1358 - val_loss: 2.1057 - val_accuracy: 0.8377 - val_precision: 0.3873 - val_recall: 0.2339
…
